FP/NFSP/Kuhn_Poker_gpu/model.pth (torch, 3999 bytes, 4 tensors)

fc1.weight f4 [64, 7]
0	0xbf09df90	-0.53856754
1	0xbf53d955	-0.827535
2	0xbec320e1	-0.38111022
3	0xbf49fbd2	-0.7889987
4	0xbf6d620f	-0.9272775
5	0x3d4fece0	0.05076301
6	0x3e296a6a	0.165445
7	0xbe39d066	-0.18145904
8	0xbe22d8c6	-0.15903005
9	0x3ed8e555	0.42362466
10	0xbf552865	-0.8326476
11	0xbeb7dfe8	-0.35913014
12	0x3e0f450e	0.13991186
13	0xbe82c54e	-0.25541157
14	0xbf9325e4	-1.1495938
15	0xbfb509aa	-1.4143574
16	0xbfa20fcb	-1.266107
17	0xc097e1d3	-4.7463164
18	0x3fd7b4ff	1.6852111
19	0x3e301336	0.17194828
20	0x3c5fda60	0.0136629045
21	0xbeb15f77	-0.34643146
22	0xbe228372	-0.15870455
23	0xbe8475ac	-0.25871027
24	0xbd07f9e0	-0.033197284
25	0xbeb5a5e7	-0.35478136
26	0xbde36f58	-0.111052215
27	0xbea9a173	-0.33130988
28	0x3e2d44ac	0.16920727
29	0xbec87a5b	-0.3915585
30	0x3e235a1d	0.15952344
31	0xbf410703	-0.75401324
32	0xbda96f19	-0.08273143
33	0xbd9778a0	-0.07396054
34	0x3d99b060	0.07504344
35	0x3d369998	0.044580072
36	0x3abedb00	0.0014561117
37	0xbe8b1df9	-0.27171305
38	0x3cef4a20	0.02921015
39	0xbe651eb0	-0.22374988
40	0xbd709ab0	-0.05874127
41	0xbe779a42	-0.24179938
42	0xbc1a18e0	-0.009405345
43	0xbe864a6a	-0.26228648
44	0xbe7bfb23	-0.2460752
45	0x3d7a84b0	0.061161697
46	0xbeb7fb31	-0.3593383
47	0xbeaa3fd2	-0.33251816
48	0xbea8a302	-0.32936865
49	0xbef2d8ab	-0.4743093
50	0xc040fe37	-3.015516
51	0x3e5538f7	0.20822512
52	0xbe360135	-0.17773898
53	0xc0016cd7	-2.022268
54	0xbeac5dc0	-0.33665276
55	0x3e1e02e6	0.15430793
56	0x3d92d8ac	0.07170233
57	0xbe987374	-0.29775584
58	0x3de818cc	0.11332855
59	0xbe91a9a2	-0.28449732
60	0x3e0ee30a	0.13953796
61	0xbe87d706	-0.26531237
62	0x3e94d0a5	0.29065433
63	0xbf976ca4	-1.183003
64	0xbf029480	-0.51007843
65	0xbf368bec	-0.71307254
66	0xbf56ee9f	-0.83957857
67	0xbebb1e95	-0.3654677
68	0x3d761db0	0.060086906
69	0xbd56fd98	-0.05248794
70	0xbe7eae3c	-0.24871153
71	0xbde857d8	-0.1134488
72	0x3cbee060	0.02330035
73	0xbe85efd4	-0.26159537
74	0xbe842192	-0.25806862
75	0x3d774eb0	0.060377777
76	0xbe5611d3	-0.20905237
77	0x3c7d05a0	0.015443236
78	0xbd64bc18	-0.055843443
79	0xbe721bb9	-0.23643388
80	0xbe96e99f	-0.29475114
81	0x3e216d12	0.15764263
82	0x3e90cfe9	0.28283623
83	0x3e6bc1d2	0.23023155
84	0xbf14d3cd	-0.5813568
85	0xbf6b30a9	-0.91871125
86	0xbf744252	-0.95413697
87	0xbf06cb6c	-0.5265415
88	0xbe85d653	-0.2614008
89	0x3e336a26	0.17520961
90	0xbe005108	-0.12530911
91	0xbec63d2e	-0.3871855
92	0xbdb79365	-0.0896366
93	0xbf1ed703	-0.6204683
94	0xbe726a91	-0.23673464
95	0xbeac88b9	-0.3369806
96	0x3e4e4eca	0.20147243
97	0xbe83a20f	-0.25709578
98	0xbe924324	-0.2856685
99	0xbe4e2bcf	-0.20133899
100	0xbe7870ca	-0.24261776
101	0xbf0a5361	-0.54033476
102	0xbe22e3da	-0.15907231
103	0x3d3e9828	0.046531826
104	0xbe0cca47	-0.13749038
105	0xbf190989	-0.59780174
106	0x3ec175f4	0.37785304
107	0xbe8daa7a	-0.27669126
108	0xbec05758	-0.37566638
109	0xbe738d44	-0.23784357
110	0xbdbf94ac	-0.09354529
111	0xbe9b44b7	-0.30325863
112	0xbf237693	-0.63852805
113	0xc046c46e	-3.105739
114	0x3f58d912	0.84706223
115	0xc069b505	-3.6516736
116	0x3fb15bc7	1.3856133
117	0xbe746b1f	-0.23868988
118	0x3e4a42ea	0.19752088
119	0xc0153877	-2.3315713
120	0xbffd1095	-1.9770685
121	0xbf9a03ac	-1.203237
122	0xc02f7b31	-2.741894
123	0xbe8b2646	-0.27177638
124	0xbe48c92f	-0.19607995
125	0x3e80149d	0.25015727
126	0x3e0c02e8	0.13672984
127	0xbf5739ae	-0.8407239
128	0xbf97cf7f	-1.1860198
129	0xc01df124	-2.467843
130	0x3e95c426	0.29251212
131	0x3d58a168	0.052888304
132	0x3ce9adf0	0.028525323
133	0xbf94e30c	-1.1631789
134	0xbf43837e	-0.76372516
135	0x3fa0ae49	1.2553188
136	0xbef71918	-0.48261333
137	0xbf3c3e96	-0.73533
138	0x3d8a1504	0.0674229
139	0x3d95c9d8	0.07313889
140	0xbde72458	-0.11286229
141	0xbe5e2af6	-0.21696076
142	0xbd0371a0	-0.032090783
143	0x3df6b890	0.12046921
144	0xbd899084	-0.06717017
145	0x3ea0120b	0.31263766
146	0x3de47700	0.1115551
147	0x3e7393b0	0.23786807
148	0xbf851357	-1.0396527
149	0xbf853d0a	-1.0409253
150	0xbea943fd	-0.33059683
151	0xbe17064c	-0.14748496
152	0xbe2bdc57	-0.16783272
153	0x3df74368	0.120734036
154	0xbee5a10d	-0.44849434
155	0xbed57f2f	-0.41698596
156	0x3edc0917	0.42975685
157	0xbe32e4fc	-0.17470163
158	0xbf9486d6	-1.1603649
159	0xbebb603e	-0.36596864
160	0x3c8f9e30	0.017531484
161	0x3f0b3bd8	0.5438819
162	0xc082be6c	-4.085745
163	0xbf8ae305	-1.0850531
164	0xbd00c86e	-0.031441145
165	0xbfdfeff3	-1.7495102
166	0xbdfe3884	-0.12413123
167	0xbe1cfd1a	-0.15330926
168	0xbddf2019	-0.10894794
169	0xbd948134	-0.07251206
170	0xbe486869	-0.1957108
171	0xbf3b713a	-0.73219645
172	0x3ebad4c1	0.36490443
173	0xbda6fabc	-0.081532925
174	0x3eb2e1d7	0.34937927
175	0xbdd7e76c	-0.10542187
176	0x3e94500f	0.2896733
177	0xbf16adb4	-0.588588
178	0xbebc2824	-0.36749375
179	0xbeb034fc	-0.34415424
180	0x3e88c509	0.26712826
181	0xbe53d716	-0.20687518
182	0x3ebea179	0.3723257
183	0x3d2448d0	0.040108502
184	0xbe73b087	-0.23797809
185	0xbf649ec5	-0.89304763
186	0xbdf0752b	-0.11741098
187	0x3e801c69	0.25021675
188	0xbea7c3b5	-0.327665
189	0xbe1868a8	-0.14883673
190	0x3d837558	0.06418866
191	0xbd93a7e0	-0.07209754
192	0xbebfb7ba	-0.3744486
193	0xbce0c1c0	-0.027436137
194	0x3e858ad9	0.26082495
195	0x3e7f6baa	0.24943414
196	0xbe2b85a7	-0.16750203
197	0xbf151cec	-0.58247256
198	0xbe8fff92	-0.28124672
199	0xbf002bb3	-0.5006668
200	0xbeb7af9f	-0.35876176
201	0xbe8720bb	-0.2639216
202	0x3e2d244a	0.16908374
203	0xbf2d6819	-0.67736965
204	0x3d654ecb	0.055983346
205	0xbf47a18e	-0.7798089
206	0xbe85234c	-0.26003492
207	0xbf38ff01	-0.72264105
208	0x3cdaaf70	0.026694983
209	0xbe5ba31e	-0.21448943
210	0x3d5f37a8	0.054496437
211	0xbf3f3707	-0.7469334
212	0x3e8d4879	0.27594355
213	0xbd6f0195	-0.058351118
214	0xbf5bbbde	-0.8583354
215	0x3e12d89a	0.1434044
216	0xbd564e00	-0.05232048
217	0xbeb238e9	-0.34809044
218	0xbf4f527f	-0.80985254
219	0xbf4142b0	-0.7549238
220	0xbe9767b5	-0.2957131
221	0xbe0efd8d	-0.1396391
222	0x3d56afa8	0.052413613
223	0x3ccc5c70	0.024946421
224	0xbeab7846	-0.334902
225	0xbe499f16	-0.19689593
226	0xbe8f5350	-0.2799325
227	0xbe883870	-0.26605558
228	0xbe0c79db	-0.13718359
229	0xbebe5757	-0.3717601
230	0xbdb5c340	-0.088751316
231	0xc0005f83	-2.0058296
232	0xc08da096	-4.425853
233	0x3da0c5f4	0.078502566
234	0xc02f26ab	-2.736735
235	0xbfbb5604	-1.4635625
236	0x3e5428e6	0.20718727
237	0x3e58595a	0.21127835
238	0xbeaa8f13	-0.33312282
239	0xbe1553bd	-0.14582725
240	0x3eb92209	0.3615878
241	0xbea12dae	-0.31480163
242	0xbebd15d4	-0.36930716
243	0xbe11d387	-0.14240848
244	0xbdbc7364	-0.092016965
245	0xbf183270	-0.5945196
246	0xbf77dbd0	-0.9681978
247	0xbf4a32cd	-0.78983766
248	0xbf27b0a9	-0.65503937
249	0xbe5b1ae5	-0.21396978
250	0x3bc843c0	0.006111592
251	0x3e37f202	0.17963412
252	0xbf97cb3b	-1.1858896
253	0xbf4318db	-0.762098
254	0xbf77638e	-0.96636283
255	0xbff0b9ae	-1.8806665

fc1.bias f4 [64]
0	0xbeaa4543	-0.33255967
1	0xbe82bd1d	-0.25534907
2	0xc0572090	-3.3613625
3	0x3e15ff46	0.1464816
4	0xbe90413f	-0.2817478
5	0xbdabb314	-0.08383766
6	0xbdd2ee10	-0.10299313
7	0xc03605ee	-2.844112
8	0xbe9e9c2b	-0.30978522
9	0xbf652498	-0.8950896
10	0xbea39b51	-0.31954435
11	0xbe491806	-0.1963807
12	0xbefdadcb	-0.49546656
13	0xbf16a3c3	-0.5884363
14	0xbf449123	-0.7678396
15	0xbf093360	-0.5359402
16	0xc03ef7d8	-2.9838772
17	0xc006d5ae	-2.106792
18	0xbfb4887f	-1.4104155
19	0xbfacf5e6	-1.3512542
20	0xbe08ed40	-0.13371754
21	0xbf0f35dc	-0.5594156
22	0xbe854e8f	-0.26036498
23	0xc04c72b9	-3.194502
24	0xbf025b3a	-0.5092045
25	0xbf56b870	-0.8387518
26	0xbf2bde8f	-0.6713647
27	0xbe9321a3	-0.287366
28	0xbf89b0ec	-1.0757117
29	0xbeb143be	-0.34621996
30	0xbeb74bae	-0.35799927
31	0xbf0678b3	-0.5252792
32	0xbf79b6f1	-0.9754477
33	0xc0958156	-4.672038
34	0xbe1fba49	-0.15598406
35	0xbea2a06e	-0.31763023
36	0xbff8997a	-1.9421837
37	0xbf71a956	-0.9439901
38	0xc0a720c9	-5.222752
39	0xbf36d47b	-0.7141797
40	0xbe350fbb	-0.17681782
41	0xc031f2b1	-2.7804377
42	0xbd651078	-0.05592391
43	0xbda83c14	-0.08214584
44	0xbeb47474	-0.35245097
45	0xc02232db	-2.534354
46	0xbfab89b6	-1.3401401
47	0xbe904c08	-0.28183007
48	0xc0451603	-3.0794685
49	0xbe06cd22	-0.1316419
50	0xbe8bb81e	-0.27288908
51	0xbfeab482	-1.8336337
52	0xbf75faaa	-0.9608561
53	0xbeb05cb0	-0.34445715
54	0xbe892338	-0.26784682
55	0xbeb18fa2	-0.34679896
56	0xc001c665	-2.027734
57	0xc0831011	-4.095711
58	0xbff6bd20	-1.9276466
59	0xbed9d5ad	-0.42545834
60	0xbde793cc	-0.11307487
61	0xbf3fb3b0	-0.74883556
62	0xbe8fbd5f	-0.28074166
63	0xbed825d8	-0.42216372

fc2.weight f4 [2, 64]
0	0xbef4fae3	-0.4784766
1	0x3d812140	0.0630517
2	0xbe8db8b5	-0.27679983
3	0x3c63cc10	0.013903633
4	0xbe98da5a	-0.2985409
5	0x3da91df0	0.08257663
6	0x3cf89670	0.030345172
7	0x3df2382f	0.118271224
8	0xbdb37f74	-0.08764544
9	0x3f0f7cb4	0.56049657
10	0x3caf3460	0.021387279
11	0xbcc95978	-0.024578795
12	0xbe4cdf50	-0.20007062
13	0xbdbc30bd	-0.091889836
14	0x3f18c866	0.59680784
15	0xbe838268	-0.2568543
16	0x3fa0af9c	1.2553592
17	0xbfa9a1e8	-1.3252535
18	0x3f201c06	0.6254276
19	0xbf1a9a8e	-0.6039208
20	0xbd7adc2c	-0.06124513
21	0x3e81eee3	0.2537757
22	0x3ddb8bd2	0.10720028
23	0xbdb8af16	-0.0901777
24	0xbed3f12e	-0.41394943
25	0xbf0dbbd4	-0.5536473
26	0x3ee5385e	0.44769567
27	0xbc053c00	-0.008131981
28	0xbe5e2f62	-0.21697763
29	0xbe4f9905	-0.20273216
30	0x3e75037f	0.23927115
31	0xbeb2d127	-0.34925196
32	0x3f0d2aa7	0.5514321
33	0xc05e17d2	-3.4702039
34	0xbd886d4a	-0.0666147
35	0xbeeba1e0	-0.46021938
36	0x3f0a7eef	0.54099935
37	0x3f45d887	0.7728352
38	0x413bd35f	11.739104
39	0x3e7992f7	0.24372469
40	0xbdcf8b76	-0.10134022
41	0x404457f8	3.0678692
42	0xc040bf76	-3.0116858
43	0xbe29f0ca	-0.1659576
44	0xbc2b90b4	-0.010471512
45	0xbeacddd9	-0.33763006
46	0x3df99604	0.12186816
47	0x3dbfffca	0.0937496
48	0x3f0dbaec	0.55363345
49	0xbe0bdae6	-0.13657722
50	0x3ded2a35	0.11580316
51	0x3ec8964d	0.3917717
52	0x3e5b6b83	0.21427731
53	0x3d856400	0.06513214
54	0xbbe9aba0	-0.007131055
55	0xbd92e668	-0.07172853
56	0x3f2d09b3	0.67592925
57	0xc045bb2d	-3.0895493
58	0xbf8047a0	-1.0021858
59	0x3d34ce12	0.044141836
60	0xbcbfd9b8	-0.023419246
61	0xbe7227dd	-0.23648019
62	0xbd11d6c9	-0.035605226
63	0xbf061119	-0.5236984
64	0x3f0e4250	0.55569935
65	0xbe489f8f	-0.19592117
66	0x3eae9ded	0.34104863
67	0xbde198b8	-0.11015457
68	0x3e69ef22	0.22845128
69	0xbdccd0bc	-0.100007504
70	0xbd36c42c	-0.044620678
71	0xbe67eda4	-0.22649246
72	0xbde179b6	-0.11009543
73	0xbf010a99	-0.50406796
74	0xbde38688	-0.11109644
75	0x3c5f7780	0.013639331
76	0x3e3c9744	0.18417078
77	0x3e3d865a	0.18508282
78	0xbef50db2	-0.4786201
79	0x3e7e4e85	0.2483464
80	0xbf945a5a	-1.1590073
81	0x3f8afa31	1.0857602
82	0xbf2f3d87	-0.6845326
83	0x3ec469c5	0.38361946
84	0xbd451b94	-0.048122004
85	0xbdc92e46	-0.09823279
86	0xbe41c333	-0.18922119
87	0x3c8383c6	0.016054045
88	0x3eb4eaaa	0.35335284
89	0x3f0b8518	0.5449996
90	0xbec77b37	-0.38961193
91	0xbc461ac0	-0.012091339
92	0x3e89da38	0.269243
93	0x3dbe1ffa	0.09283443
94	0xbddc061b	-0.10743352
95	0x3ece1728	0.40252042
96	0xbf0d5ad1	-0.552167
97	0x40670044	3.6093912
98	0xbca41d80	-0.020033598
99	0x3ebf9ca8	0.37424207
100	0xbf01e29e	-0.50736415
101	0xbf45e52c	-0.77302814
102	0xc13bf026	-11.74613
103	0xbea35f0f	-0.3190846
104	0xbde19010	-0.11013806
105	0xc044eaa2	-3.0768209
106	0x4033ebab	2.811259
107	0x3da34f83	0.0797415
108	0xbe462352	-0.19349411
109	0x3e99e7e7	0.3005974
110	0xbe612059	-0.21984996
111	0xbd4442b0	-0.04791516
112	0xbf3a3f39	-0.7275272
113	0x3e09c5f9	0.13454427
114	0x3d964ecb	0.07339247
115	0xbee27fad	-0.44238034
116	0xbe23a174	-0.15979558
117	0xbdc755c0	-0.097331524
118	0xbc8a13f0	-0.01685521
119	0x3ccef630	0.025263876
120	0xbf312177	-0.6919169
121	0x403d7829	2.960459
122	0x3f7cdc61	0.9877377
123	0x3df4a4ac	0.11945471
124	0xbc92eb50	-0.017934471
125	0x3e83bfa5	0.2573215
126	0x3dc0fc6a	0.09423144
127	0x3f0a2052	0.53955567

fc2.bias f4 [2]
0	0xbdd26918	-0.10273951
1	0x3d2ec9a4	0.04267277
